model_dqn.pt (torch, 676399 bytes, 8 tensors)

model.0.weight f4 [512, 6]
0.19428709 -0.19330883 -0.042961255 0.17999376 -0.42364714 0.23651205 -0.09880771 0.18415582
0.029371614 -0.048076436 0.082484774 0.04581709 0.14910376 -0.15909478 -0.02976489 -0.036753505
0.059173137 -0.0016308725 0.3454998 0.11326245 -0.1672283 -0.2529808 -0.09174138 -0.17696795
-0.13297404 0.012898963 0.2318107 0.21774654 -0.42466623 0.2717826 0.108564496 0.3760895
0.25122765 -0.37347394 -0.4164667 -0.19243051 0.33866635 -0.08804796 0.146613 -0.20657623
0.38029945 -0.18742588 0.32773536 0.023366237 -0.20221241 0.22233826 -0.24985741 0.13353975
-0.117884636 -0.04475805 -0.39248508 -0.19464533 0.22152942 -0.09923589 0.38472912 0.31062555
-0.044859093 -0.31073293 0.2346804 0.12553209 -0.27778354 0.24268948 0.21858497 0.36025995
-0.25787437 -0.044081356 0.020443138 0.079235435 -0.30019793 -0.26029778 0.23143172 -0.08067265
0.16720557 -0.014934728 0.099488474 0.06726762 0.1037177 0.20814675 -0.37808368 0.20549238
-0.28704888 -0.308027 0.024827361 -0.069568455 0.20917164 -0.26129267 -0.38483357 0.2802222
-0.07034374 0.19088273 0.14299051 -0.30701637 0.093760885 0.08215569 -0.2733462 -0.17034689
0.12371385 0.062607944 -0.18123375 -0.14008291 0.38279808 -0.08727217 0.21159835 0.16607484
-0.2715354 -0.3833539 0.3952839 0.034626283 0.25355068 0.06339064 0.10696373 0.26184168
0.3793766 -0.26011205 0.044242915 0.29521468 0.28152978 0.24533471 -0.31427327 -0.28515536
-0.2574971 0.044040244 0.3992906 -0.27517426 0.22541842 -0.2259606 -0.37815818 -0.07873931
0.2379064 0.3969294 -0.25895217 0.08677539 0.32643944 0.24765833 0.22467579 0.26647282
0.24436067 0.08858128 -0.27916843 -0.34283 -0.18706778 -0.047538847 -0.2502367 0.14935917
0.1130957 -0.096984886 0.158078 0.1089906 0.2586628 0.2736121 -0.16351701 0.37446523
-0.07082483 -0.037172765 -0.4027879 -0.26521045 -0.23850009 -0.17461716 0.29025215 -0.1334078
-0.30507627 0.1570735 0.11858906 0.25252733 -0.22967747 0.06499699 -0.17336878 -0.07067486
-0.32534057 -0.18606363 -0.1250292 0.17458141 0.07458264 0.100844026 0.3770118 0.36171755
0.24136606 -0.0032312342 -0.32249415 0.33240622 -0.103081726 -0.033989936 -0.3517055 -0.08166122
-0.2633152 0.37414837 -0.35293925 -0.3182225 -0.01386261 -0.22074617 0.14607602 -0.15714523
-0.19450882 0.02757599 0.29746062 -0.31369165 0.20387915 0.22530681 0.42474854 -0.2549326
0.1280009 -0.27847016 0.38186422 -0.1843076 0.22829252 -0.009102137 -0.046986755 -0.019826524
0.03777064 0.18072075 0.05309707 0.11579106 -0.37633753 0.2768525 0.35353756 0.32240286
0.28681347 -0.3114832 -0.115135394 0.36506858 -0.3301609 0.34573367 -0.2830722 -0.24956004
0.23759678 -0.29332194 -0.09352997 0.3350108 0.3016353 0.37055027 -0.0967538 -0.33995548
0.40226337 -0.09980052 -0.15799305 0.11359734 -0.2846373 0.25550723 0.2659948 -0.31616858
-0.30347225 -0.008456853 0.19554327 -0.009354356 -0.20785952 0.0234081 -0.3875533 -0.29235438
-0.27176654 0.33238444 0.35604572 -0.1424888 -0.0065987925 0.16729029 0.04011434 -0.23762712
00000000: 32f3 463e c0f2 45be 24f8 2fbd 4950 383e
00000010: 47e8 d8be 3730 723e b25b cabd 5893 3c3e
00000020: bd9c f03c cceb 44bd c7ed a83d b3aa 3b3d
00000030: a8ae 183e bee9 22be 80d5 f3bc d88a 16bd
00000040: 885f 723d 00c3 d5ba 5ae5 b03e 25f6 e73d
00000050: e53d 2bbe b386 81be e8e2 bbbd 1637 35be
00000060: 592a 08be 2c56 533c c95f 6d3e f3f8 5e3e
00000070: da6d d9be 1727 8b3e 1057 de3d ce8e c03e
00000080: e9a0 803e fa37 bfbe 203b d5be 810c 45be
00000090: ad65 ad3e 7d52 b4bd b821 163e b888 53be
000000a0: 9cb6 c23e 92ec 3fbe eecc a73e 8d6a bf3c
000000b0: c510 4fbe a4ac 633e 9fda 7fbe a5be 083e
000000c0: 806d f1bd 3854 37bd cef3 c8be 1b51 47be
000000d0: 9cd8 623e 303c cbbd 37fb c43e 500a 9f3e
000000e0: 2bbe 37bd 6318 9fbe 0f50 703e 7c8b 003e
000000f0: a539 8ebe 9783 783e bdd4 5f3e fe73 b83e
00000100: 1c08 84be a78e 34bd 5e78 a73c 3046 a23d
00000110: 8bb3 99be c045 85be 70fc 6c3e b437 a5bd
00000120: f037 2b3e cab0 74bc 9dc0 cb3d 9bc3 893d
00000130: f269 d43d 6c24 553e 2f94 c1be 986c 523e
00000140: 12f8 92be b7b5 9dbe c062 cb3c e879 8ebd
00000150: 1731 563e 27c8 85be e808 c5be 4979 8f3e
00000160: 6110 90bd c376 433e 1b6c 123e 4031 9dbe
00000170: b505 c03d 3e41 a83d 08f4 8bbe 6a6f 2ebe
00000180: b05d fd3d 9838 803d 5795 39be e571 0fbe
00000190: 1cfe c33e c0bb b2bd 3dad 583e 860f 2a3e
000001a0: b006 8bbe f646 c4be a762 ca3e 4ad4 0d3d
000001b0: 65d1 813e f4d2 813d cd0f db3d 1d10 863e
000001c0: a63d c23e 682d 85be 0f38 353d 6126 973e
000001d0: ac24 903e 0639 7b3e 6de8 a0be e2ff 91be
000001e0: a9d6 83be 8b63 343d d16f cc3e a4e3 8cbe
000001f0: 16d4 663e 3762 67be f39d c1be 1342 a1bd
00000200: bc9d 733e 553a cb3e 6195 84be 4cb7 b13d
00000210: 1223 a73e 259a 7d3e 6911 663e 206f 883e
00000220: af39 7a3e 1a6a b53d 2aef 8ebe 6a87 afbe
00000230: b28e 3fbe 18b8 42bd 061f 80be 9cf1 183e
00000240: b89e e73d 03a0 c6bd 33df 213e 7736 df3d
00000250: 736f 843e e316 8c3e 0171 27be e8b9 bf3e
00000260: 9c0c 91bd 7842 18bd 373a cebe aac9 87be
00000270: 5e39 74be d7ce 32be ee9b 943e 0e9c 08be
00000280: f532 9cbe e0d7 203e d2de f23d 434b 813e
00000290: 9230 6bbe 241d 853d 9687 31be fbbd 90bd
000002a0: 0a93 a6be 7787 3ebe a807 00be 78c5 323e
000002b0: c8be 983d 5087 ce3d b107 c13e 0b33 b93e
000002c0: aa28 773e 1dc3 53bb f41d a5be 2631 aa3e
000002d0: 831c d3bd 0839 0bbd be12 b4be ff3d a7bd
000002e0: 40d1 86be 6090 bf3e 74b4 b4be 0fee a2be
000002f0: 0020 63bc 490b 62be f494 153e aeea 20be
00000300: 522d 47be 0be7 e13c c24c 983e 319c a0be
00000310: b2c5 503e d4b6 663e a478 d93e 8786 82be
00000320: ab12 033e a493 8ebe b583 c33e 22bb 3cbe
00000330: 84c5 693e 2121 15bc 2f75 40bd 3c6b a2bc
00000340: 63b5 1a3d dc0e 393e 507c 593d dd23 ed3d
00000350: 50af c0be 9cbf 8d3e e002 b53e fd11 a53e
00000360: 37d9 923e ba7a 9fbe 1bcc ebbd 45ea ba3e
00000370: d90a a9be 0104 b13e d7ee 90be ab8c 7fbe
00000380: 924c 733e 4b2e 96be a48c bfbd 8986 ab3e
00000390: f16f 9a3e c4b8 bd3e db26 c6bd a50e aebe
000003a0: 77f5 cd3e 3764 ccbd eec8 21be b9a5 e83d
000003b0: fbbb 91be d8d1 823e 7830 883e d9e0 a1be
000003c0: b760 9bbe 9d8e 0abc 7f3c 483e 0343 19bc
000003d0: 20d9 54be 58c2 bf3c 636d c6be 79af 95be
000003e0: fc24 8bbe 4b2e aa3e a04b b63e 96e8 11be
000003f0: af3a d8bb 254e 2b3e ef4e 243d 8654 73be

model.0.bias f4 [512]
0.26665846 -0.4082776 -0.27877066 0.103309125 0.007141797 0.23088889 0.1534221 0.038726497
0.062292397 0.29918024 -0.41222036 -0.11945863 0.21828201 -0.3191172 0.16329063 0.28301334
0.11723108 -0.2691158 -0.24434917 0.09200613 -0.18588327 0.16883378 0.09861671 0.07392809
0.37493074 -0.4191448 -0.39192116 0.27764276 -0.13705492 -0.43080497 -0.13741012 0.31060147
-0.039131064 0.22095844 0.21600886 -0.13476068 0.2159643 0.16400543 -0.2784091 -0.074906185
0.29105464 0.15495893 0.04926424 -0.07813169 -0.28750566 -0.16663788 0.2646749 -0.024427913
-0.2438725 0.05419579 -0.3365226 -0.0572682 -0.01671955 -0.39877534 -0.27451298 -0.29720557
-0.28386158 0.32316962 0.15895295 -0.32687482 -0.17402264 0.29991263 0.36739972 0.027559703
-0.008787384 -0.3259531 0.2181305 -0.11464745 0.03136621 -0.090572916 0.12187245 0.09522152
-0.09898025 -0.082999885 -0.008541174 -0.35478687 -0.024224877 -0.32484144 0.2824905 0.19707437
-0.08662767 0.25986806 0.0312737 0.42605418 0.08194196 0.19317505 0.06242925 -0.23014241
-0.38294205 -0.11490727 0.3407096 0.18374492 -0.16497453 -0.25395596 0.4248286 0.054927353
-0.3278859 -0.16419177 0.018192291 -0.08142346 -0.16929772 0.110040456 -0.2958589 0.14644344
-0.2889084 0.35663262 0.32752615 0.3914725 -0.40021688 -0.14975095 -0.08263679 -0.3884219
0.23775393 -0.1573278 -0.007504344 0.19539869 -0.3224997 0.015695836 -0.21321318 0.3201274
0.35303187 -0.09029433 -0.2630816 0.21788734 -0.31561926 0.3817797 0.32594898 0.19926016
-0.1332112 0.31617865 0.32593188 -0.07821822 -0.25827533 -0.014121714 0.33183038 0.37362868
-0.41204017 0.36002216 -0.26392013 0.05073909 -0.18162039 -0.23004161 -0.06358436 0.01357162
-0.3193873 -0.14168528 0.29383695 -0.02677747 -0.22950256 0.35070866 -0.38171852 -0.136451
0.30598992 0.04060127 -0.16959265 -0.2207487 -0.062048256 -0.2277354 -0.034194827 0.3511664
0.20264709 -0.16477513 0.2536639 -0.38807046 -0.016448839 0.34030646 0.09210205 -0.33181742
0.08382812 0.2778288 -0.03207174 0.24039209 -0.38059765 0.265193 -0.40505219 0.21917954
-0.36149213 -0.12441924 -0.056088775 -0.061789125 -0.05273755 -0.31196898 -0.29212347 0.26206172
0.0736926 0.056458637 -0.07086599 0.08717359 0.07272084 -0.13287583 0.013263894 0.03174898
0.35974145 -0.37317863 -0.2865829 -0.18332982 0.15955634 -0.29736826 -0.2161901 -0.21135348
-0.045182794 -0.38159806 0.05835783 0.3333493 0.25541383 -0.33373317 -0.12310213 0.19441251
0.14434588 0.14881872 0.18944961 -0.108579285 0.26381317 0.35481787 0.1336797 -0.097091384
0.16857567 0.2701164 -0.31810698 0.10838785 -0.23753896 0.020737797 -0.2761543 -0.10176343
0.001568824 -0.30802038 -0.32236287 0.16265304 -0.21046661 0.2798174 -0.16836025 0.3373762
0.009725506 -0.237565 0.023998076 -0.11126328 0.059032936 0.15281191 -0.4006305 0.03250567
0.2179705 -0.13874683 -0.0037683873 0.19077887 -0.31724358 0.29825366 -0.34195554 -0.1235452
0.13274173 -0.06772363 -0.39707977 -0.28360575 -0.03074169 -0.15209842 -0.08182388 0.3144228
00000000: 7587 883e c309 d1be 07bb 8ebe bc93 d33d
00000010: bc05 ea3b 236e 6c3e af1a 1d3e ad9f 1e3d
00000020: 5026 7f3d 272e 993e 8c0e d3be baa6 f4bd
00000030: 5285 5f3e 5463 a3be a935 273e 20e7 903e
00000040: d916 f03d 8cc9 89be ab36 7abe b66d bc3d
00000050: 2f58 3ebe c3e2 2c3e 8ff7 c93d 9c67 973d
00000060: ecf6 bf3e 269a d6be e4a9 c8be 3127 8e3e
00000070: 2058 0cbe 7892 dcbe 3db5 0cbe 2807 9f3e
00000080: e547 20bd ee42 623e 6d31 5d3e b4fe 09be
00000090: bf25 5d3e 0af1 273e a38b 8ebe 6a68 99bd
000000a0: 1d05 953e 8ead 1e3e 4dc9 493d 8203 a0bd
000000b0: f133 93be 1fa3 2abe 7883 873e 0c1d c8bc
000000c0: b6b9 79be 68fc 5d3d b14c acbe 0f92 6abd
000000d0: 70f7 88bc 482c ccbe f78c 8cbe 542b 98be
000000e0: 4e56 91be 7d76 a53e 90c4 223e 235c a7be
000000f0: fe32 32be 268e 993e d11b bc3e e3c4 e13c
00000100: f6f8 0fbc 53e3 a6be 9a5d 5f3e 48cc eabd
00000110: db79 003d 4b7e b9bd 4398 f93d 8003 c33d
00000120: 28b6 cabd d8fb a9bd 48f0 0bbc a0a6 b5be
00000130: 4073 c6bc 9e51 a6be 98a2 903e ddcd 493e
00000140: d969 b1bd 6d0d 853e da18 003d c623 da3e
00000150: 30d1 a73d aecf 453e d0b5 7f3d 74aa 6bbe
00000160: fb10 c4be 8154 ebbd 7d71 ae3e a127 3c3e
00000170: 15ef 28be 8406 82be 2283 d93e 81fb 603d
00000180: a9e0 a7be e321 28be 0008 953c 58c1 a6bd
00000190: 625c 2dbe e45c e13d d17a 97be 45f5 153e
000001a0: cdeb 93be 8d98 b63e 82b1 a73e 156f c83e
000001b0: 3ae9 ccbe 5058 19be 7a3d a9bd 3cdf c6be
000001c0: c475 733e 8a1a 21be 00e7 f5bb 9816 483e
000001d0: ae1e a5be 8e94 803c 8e54 5abe bde7 a33e
000001e0: 98c0 b43e 3cec b8bd a2b2 86be dc1d 5f3e
000001f0: d998 a1be a178 c33e c9e2 a63e db0a 4c3e
00000200: 8468 08be 2be2 a13e 8be0 a63e e030 a0bd
00000210: aa3c 84be c35e 67bc ace5 a93e 424c bf3e
00000220: eef6 d2be d354 b83e 8a20 87be cbd3 4f3d
00000230: b2fa 39be 0790 6bbe 8438 82bd 805b 5e3c
00000240: bb86 a3be f215 11be cc71 963e 6d5c dbbc
00000250: b802 6bbe 1690 b33e 9c70 c3be d0b9 0bbe
00000260: b6aa 9c3e 844d 263d b2a9 2dbe f20b 62be
00000270: 5026 7ebd 7833 69be e00f 0cbd 15cc b33e
00000280: b882 4f3e d0ba 28be 3ce0 813e 2cb1 c6be
00000290: b7bf 86bc a63c ae3e 00a0 bc3d f9e3 a9be
000002a0: 14ae ab3d 943f 8e3e a85d 03bd 5829 763e
000002b0: b2dd c2be 60c7 873e 0063 cfbe 9a70 603e
000002c0: 7f15 b9be 84cf febd 58bd 65bd 9816 7dbd
000002d0: 5403 58bd 66ba 9fbe 3591 95be f42c 863e
000002e0: 25ec 963d 2c41 673d 3022 91bd 1188 b23d
000002f0: aaee 943d 9a10 08be ce50 593c 380b 023d
00000300: 0830 b83e 4511 bfbe feba 92be d0ba 3bbe
00000310: bd62 233e a740 98be f060 5dbe 0c6d 58be
00000320: 9811 39bd d260 c3be 9f08 6f3d c2ac aa3e
00000330: 9ac5 823e 13df aabe f81c fcbd 1314 473e
00000340: 68cf 133e ef63 183e 14ff 413e d15e debd
00000350: 8512 873e b0aa b53e 55e3 083e d9d7 c6bd
00000360: 1a9f 2c3e b24c 8a3e ebde a2be 73fa dd3d
00000370: 6a3d 73be 50e2 a93c 1964 8dbe 5869 d0bd
00000380: 00a1 cd3a d9b4 9dbe bf0c a5be 858e 263e
00000390: 8f84 57be 3a44 8f3e a166 2cbe 93bc ac3e
000003a0: bb57 1f3c 3d44 73be 9d97 c43c 01de e3bd
000003b0: 85cc 713d ba7a 1c3e 711f cdbe aa24 053d
000003c0: a933 5f3e a613 0ebe 0cf7 76bb 895b 433e
000003d0: c06d a2be b4b4 983e cc14 afbe 4405 fdbd
000003e0: 73ed 073e b0b2 8abd 0a4e cbbe c634 91be
000003f0: ffd5 fbbc b0bf 1bbe 4793 a7bd 06fc a03e

model.2.weight f4 [256, 512]
-0.016607312 -0.019051284 0.0059399456 0.024166308 0.05379802 0.024607545 -0.01340226 0.088610455
-0.025044046 -0.0007801639 0.01299965 -0.018101377 -0.0115833115 0.004960414 0.0021071876 -0.008373019
-0.030808492 -0.065843806 -0.02915896 -0.037431076 -0.035753228 -0.03224057 -0.016853567 0.03478239
-0.042878833 0.040587533 -0.0011455156 -0.009233165 0.041271646 0.04427597 -0.04468762 0.0017604269
-0.048036743 -0.057907317 0.031993452 0.02710663 0.04711085 0.005220617 -0.01290319 0.004367765
-0.03481715 0.038421117 -0.0023368008 0.014996733 0.016002826 0.036203366 0.011418518 0.01193011
0.0030404332 -0.019537292 0.0054916553 -0.04031539 -0.01891873 0.04641387 0.0052972473 0.0025225407
-0.016969318 -0.030775521 0.033124212 -0.029011523 0.031967435 -0.025355063 0.05385528 -0.021581749
-0.026526416 0.03848663 0.043454424 -0.023525206 -0.0183695 0.03861609 0.0034159245 0.030495781
-0.037445776 0.050360017 0.0722724 0.012384544 -0.016616395 0.0630724 0.0031190559 0.01715872
-0.057054125 0.019074429 -0.049941197 -0.017485233 -0.032024834 -0.03938865 -0.016903969 0.0039194426
0.0204993 0.010702275 0.06619693 -0.004755925 -0.047165107 -0.041967988 -0.0458302 0.04070837
-0.081156924 0.03580218 -0.01089245 -0.036405027 -0.022461168 0.024461724 0.016573315 0.010128696
0.021776974 0.04054212 -0.0015706271 0.020643674 -0.0057277605 0.035002794 0.01716923 0.01948146
0.009914889 -0.033570893 -0.013844723 0.029195372 0.023199279 0.0004990165 -0.015349446 -0.017391378
0.009413683 -0.020540366 -0.0041962415 -0.0036116608 0.03619415 -0.0037329942 0.04531963 0.07446309
0.059153855 0.09564552 0.075755775 -0.03860715 -0.029580534 0.017122377 0.021041257 0.02190759
-0.011258411 -0.033797 -0.0022850446 0.0055168453 -0.0071861893 -0.028611314 -0.030368615 0.036908206
-0.0017564665 -0.021228636 -0.030239884 -0.00963812 -0.025447832 -0.048214406 -0.03240075 0.014641744
-0.00796375 0.0509938 -0.0038166235 -0.0031858757 0.023211975 0.0363831 -0.012623639 -0.038522243
-0.011235761 -0.045703176 0.020973738 0.017832741 -0.044968948 -0.014650861 0.007262625 0.0013939962
-0.009689047 -0.04066008 -0.010074742 -0.0066720024 0.03332866 -0.018087447 -0.010818679 0.080138125
0.012775856 0.032277483 0.029466238 -0.029034615 -0.0120324 -0.032412276 -0.019065326 0.037576552
0.03930307 -0.06379126 0.030534957 0.0047197035 0.046794366 -0.0034418968 -0.03153132 0.029095035
-0.027392637 -0.018322537 0.016898626 0.019653816 0.03052431 -0.019773057 -0.023458151 0.01023901
0.022914594 0.021359313 -0.054862563 0.05812622 -0.03990802 -0.010421027 -0.0034984574 -0.025997704
0.021080093 -0.029805094 -0.05021573 -0.010245694 0.04325288 0.032334562 0.024638265 -0.00062474946
-0.041118663 -0.0070454087 0.0023009835 0.01607506 -0.027793992 -0.022333778 0.0031533407 -0.023127139
-0.016575197 0.011998916 -0.025234034 0.04236349 0.03270272 -0.0210115 0.070037015 -0.03862822
0.04560563 -0.028911546 0.01805917 0.061146487 0.012270492 -0.0032087006 -0.008050055 0.011337915
-0.029189885 -0.050936084 -0.06997953 -0.02696993 0.038409207 -0.031520642 -0.019482132 -0.041324027
0.048089568 0.015842669 -0.03411724 -0.00664331 0.031686965 -0.042479303 0.0013655768 -0.04352449
00000000: 0f0c 88bc 7011 9cbc e0a3 c23b 6cf8 c53c
00000010: 505b 5c3d c395 c93c 2795 5bbc 6679 b53d
00000020: 2c29 cdbc ea83 4cba 7cfc 543c 5749 94bc
00000030: eec7 3dbc f88a a23b be18 0a3b fd2e 09bc
00000040: 1762 fcbc 1ed9 86bd c5de eebc 5451 19bd
00000050: fa71 12bd b00e 04bd 7e10 8abc fb77 0e3d
00000060: b7a1 2fbd 1d3f 263d 2025 96ba b346 17bc
00000070: 750c 293d b85a 353d 5e0a 37bd 20be e63a
00000080: 2dc2 44bd 3930 6dbd 910b 033d b90e de3c
00000090: 4ff7 403d b611 ab3b e767 53bc 781f 8f3b
000000a0: 6e9c 0ebd 765f 1d3d 0325 19bb dbb4 753c
000000b0: 5c18 833c fb49 143d bc14 3b3c 8276 433c
000000c0: 0142 473b ac0c a0bc 58f3 b33b c021 25bd
000000d0: 74fb 9abc 781c 3e3d 8894 ad3b 3651 253b
000000e0: 3d03 8bbc f21c fcbc 41ad 073d 93a9 edbc
000000f0: 49f0 023d 6cb5 cfbc 5b97 5c3d 35cc b0bc
00000100: ed4d d9bc 28a4 1d3d 44fd 313d efb7 c0bc
00000110: a27b 96bc e82b 1e3d b4dd 5f3b 4ad2 f93c
00000120: be60 19bd 4e46 4e3d 8d03 943d 8be8 4a3c
00000130: 1b1f 88bc 1a2c 813d 1369 4c3b 7290 8c3c
00000140: 96b1 69bd fa41 9c3c 248f 4cbd 313d 8fbc
00000150: 792c 03bd fe55 21bd 317a 8abc ab6e 803b
00000160: 26ee a73c 9858 2f3c 4292 873d 97d7 9bbb
00000170: 3330 41bd a0e6 2bbd 73b8 3bbd d2bd 263d
00000180: 9a35 a6bd 4fa5 123d 3f76 32bc 701d 15bd
00000190: 7c00 b8bc f463 c83c c3c4 873c d5f2 253c
000001a0: a065 b23c 7e0f 263d 80dd cdba ec1c a93c
000001b0: f0af bbbb 175f 0f3d 7ca6 8c3c 9597 9f3c
000001c0: 0f72 223c a281 09bd fad4 62bc 222b ef3c
000001d0: 6a0c be3c 6ed0 023a 3e7c 7bbc 5d78 8ebc
000001e0: d93b 1a3c 4544 a8bc a080 89bb 9db1 6cbb
000001f0: 5140 143d 40a5 74bb 14a1 393d 1b80 983d
00000200: 504b 723d cce1 c33d d825 9b3d 8822 1ebd
00000210: e052 f2bc 3a44 8c3c b75e ac3c 8c77 b33c
00000220: 3375 38bc b96e 0abd b0c0 15bb a7c6 b43b
00000230: 207a ebbb 4662 eabc 9ac7 f8bc 0f2d 173d
00000240: 3c39 e6ba ade7 adbc a2b9 f7bc 35e9 1dbc
00000250: f977 d0bc 787c 45bd a6b6 04bd ede3 6f3c
00000260: 637a 02bc e0de 503d 5120 7abb 20ca 50bb
00000270: 0a27 be3c 7206 153d 61d3 4ebc 80c9 1dbd
00000280: 3316 38bc 4133 3bbd 1ed1 ab3c f815 923c
00000290: 5c31 38bd 2a0a 70bc 50fb ed3b c0b6 b63a
000002a0: cfbe 1ebc 2f8b 26bd 8810 25bc d0a0 dabb
000002b0: a283 083d 202c 94bc d440 31bc 751f a43d
000002c0: d351 513c 6535 043d 2e63 f13c 00da edbc
000002d0: 8b23 45bc bcc2 04bd e32e 9cbc dfe9 193d
000002e0: 42fc 203d fea4 82bd 7224 fa3c bea7 9a3b
000002f0: 73ab 3f3d 7291 61bb fc26 01bd b658 ee3c
00000300: 8666 e0bc 2519 96bc fd6e 8a3c 0a01 a13c
00000310: 1e0e fa3c 1bfb a1bc 4f2b c0bc 85c1 273c
00000320: 63b7 bb3c baf9 ae3c 91b7 60bd c215 6e3d
00000330: 9876 23bd f5bc 2abc 6046 65bb 23f9 d4bc
00000340: 29b0 ac3c d029 f4bc 02af 4dbd 8edd 27bc
00000350: ef29 313d 3f71 043d 30d6 c93c 3ac6 23ba
00000360: 0b6c 28bd 2cdd e6bb 19cc 163b d8af 833c
00000370: 3ab0 e3bc 54f5 b6bc 47a8 4e3b 2075 bdbc
00000380: b5c8 87bc 1a97 443c 9bb7 cebc 5785 2d3d
00000390: 4af3 053d 4f20 acbc 916f 8f3d a038 1ebd
000003a0: f8cc 3a3d e8d7 ecbc d3f0 933c bd74 7a3d
000003b0: 2c0a 493c 1049 52bb 61e4 03bc aac2 393c
000003c0: a01f efbc 5ba2 50bd 6e51 8fbd 0bf0 dcbc
000003d0: f952 1d3d ca1b 01bd fe98 9fbc 6243 29bd
000003e0: 91f9 443d 7cc8 813c 85be 0bbd 20b0 d9bb
000003f0: 31ca 013d c7fe 2dbd 27fd b23a bc46 32bd

model.2.bias f4 [256]
0.03028394 -0.046959497 0.00053611776 -0.0024577018 -0.026276274 0.02636201 -0.04256768 -0.021274518
0.031043401 -0.012144072 -0.029213982 0.041062333 -0.035821676 -0.006589755 0.028923709 0.028420633
0.013832751 -0.015872134 0.0041107 -0.049898185 0.00991446 0.009795748 -0.027842376 -0.009888461
0.04091167 0.0044963644 0.0035451085 -0.03915789 0.0064032637 0.014139865 -0.04786175 -0.016460357
0.0047750585 -0.0033393125 0.0155444695 0.008004878 0.013791584 0.019483615 0.014449755 -0.010201976
-0.028179124 -0.02243805 0.0077888207 -0.019389072 -0.039056152 0.0040682917 -0.045399375 0.026862565
-0.041667316 -0.020845989 0.017897043 -0.030795855 0.010194599 0.02060183 0.025146203 -0.013798378
-0.022680847 0.018750334 0.024463352 -0.024763802 -0.017053133 -0.015213342 0.008327704 0.021374155
0.051763 -0.027302532 0.03454305 0.010808587 0.03526209 0.0073146373 -0.012559963 -0.0321608
0.027681028 -0.021403864 0.032474197 -0.022384496 -0.036365174 0.03138418 -0.013197647 -0.032257054
0.03016354 -0.035430547 0.018101966 0.035801988 -0.018318947 -0.01938333 -0.008311427 -0.008484743
0.015270982 0.032190453 0.03221816 0.04203668 0.01215858 0.0271723 0.023074638 -0.0029194222
-0.00871974 -0.03571559 0.039438736 -0.0030237816 0.002041881 -0.026007378 0.0008070902 -0.008619005
0.03382352 0.031795446 0.01570935 -0.044498503 -0.00871257 0.03494629 0.047026057 -0.014463932
-0.002928871 -0.04338727 -0.031417247 -0.01841007 -0.021169128 0.021335144 0.034241118 -0.024651045
-0.014035238 -0.020720067 -0.020907203 0.009975177 -0.009569603 0.022480601 0.0012165676 -0.0019711838
0.012287687 -0.005364395 0.030920273 0.0036042295 0.0030601523 0.03398034 -0.028257722 0.015918113
0.0277574 -0.009338199 0.0017397453 0.04012811 0.0011542588 -0.0012305714 0.0023947011 0.0023093547
-0.03850676 0.0028923247 -0.030561907 0.0161451 0.0062177805 -0.045823857 0.02096125 -0.01901048
0.025798349 -0.003982097 -0.03430628 0.0471166 0.027947634 0.04340914 -0.008868214 0.05206514
-0.008431497 0.02833837 0.017804837 -0.0044072275 -0.029121248 -0.02852529 0.0151842125 -0.03329712
0.0059087574 0.0273463 -0.017917046 0.033178218 -0.010766021 0.021934291 0.0013285105 0.014933366
0.043738473 -0.024097083 -0.014470024 0.01319169 -0.011621298 0.023715315 0.02003763 0.0065743844
0.039297257 0.042289894 0.029416475 -0.03692511 -0.005921331 0.0080990875 0.018439386 -0.02382248
0.028610224 0.053966787 -0.04582856 -0.010717865 0.047491763 -0.022160614 -0.04484141 0.043129873
1.107871e-05 0.025393866 -0.024418214 0.024855139 -0.037211232 -0.022744056 -0.009332082 0.029509924
0.030413993 0.044110637 0.04257198 -0.033368573 -0.010703686 0.012535724 0.01430905 -0.03956931
-0.009593682 0.031556822 -0.049337164 -0.026582614 -0.038645983 0.009463995 0.03268829 0.051479608
-0.035300937 -0.017450819 0.0035426242 -0.004103967 0.004790347 0.019385524 0.031791437 -0.0015316792
-0.0051905485 -0.027425196 0.0168438 0.0034452304 -0.02095493 -0.02645537 0.037699495 0.01008252
0.049063735 -0.04176718 0.0103131905 -0.040265862 0.014449658 0.015293914 -0.0045417333 0.027984736
0.0043557277 -0.010601 -0.002520466 -0.039609782 -0.005704914 -0.039307613 -0.0015097857 0.038422953
00000000: 0616 f83c 9a58 40bd 418a 0c3a 6511 21bb
00000010: 5741 d7bc 24f5 d73c 735b 2ebd e647 aebc
00000020: bb4e fe3c eef7 46bc 2952 efbc fa30 283d
00000030: c0b9 12bd dfee d7bb 6af1 ec3c 63d2 e83c
00000040: c3a2 623c 4706 82bc 0db3 863b 0a62 4cbd
00000050: 4270 223c 587e 203c b215 e4bc 3603 22bc
00000060: ff92 273d 3d56 933b 0d55 683b 0664 20bd
00000070: 78d2 d13b e4aa 673c af0a 44bd dfd7 86bc
00000080: 1878 9c3b 5ed8 5abb 3bae 7e3c e426 033c
00000090: 19f6 613c 1a9c 9f3c aabe 6c3c 3026 27bc
000000a0: e8d7 e6bc 00d0 b7bc 5d39 ff3b d5d5 9ebc
000000b0: 58f9 1fbd 4e4f 853b b2f4 39bd e20e dc3c
000000c0: 59ab 2abd 35c5 aabc d29c 923c 9747 fcbc
000000d0: 3f07 273c 2bc5 a83c 69ff cd3c 9812 62bc
000000e0: 2fcd b9bc 4d9a 993c 5e67 c83c 75dd cabc
000000f0: 03b3 8bbc 6241 79bc ec70 083c da18 af3c
00000100: 7105 543d 8fa9 dfbc 037d 0d3d 8016 313c
00000110: fb6e 103d a0af ef3b 4ec8 4dbc 0bbb 03bd
00000120: 53c3 e23c 2857 afbc aa03 053d b15f b7bc
00000130: a6f3 14bd b38c 003d f23a 58bc f91f 04bd
00000140: 8719 f73c 9f1f 11bd 934a 943c 1ba5 123d
00000150: 9e11 96bc cac9 9ebc a72c 08bc 9703 0bbc
00000160: 2433 7a3c 23da 033d 30f7 033d a72e 2c3d
00000170: c834 473c 7198 de3c 0607 bd3c c753 3fbb
00000180: 3edd 0ebc 834a 12bd 838a 213d a32a 46bb
00000190: 14d1 053b 6d0d d5bc e892 533a ba36 0dbc
000001a0: 888a 0a3d f13b 023d e5b0 803c 1044 36bd
000001b0: 2bbf 0ebc d723 0f3d 659e 403d 21fa 6cbc
000001c0: 4df2 3fbb dab6 31bd 5faf 00bd b7d0 96bc
000001d0: e16a adbc 0ac7 ae3c 6a40 0c3d fdf0 c9bc
000001e0: 0ef4 65bc 21bd a9bc 9545 abbc ed6e 233c
000001f0: d3c9 1cbc 3d29 b83c 3c75 9f3a fa2e 01bb
00000200: 4b52 493c cfc7 afbb 834c fd3c f034 6c3b
00000210: d68c 483b f82e 0b3d bd7c e7bc b466 823c
00000220: 7d63 e33c 3fff 18bc 2a08 e43a 605d 243d
00000230: 804a 973a 204b a1ba 6bf0 1c3b 8b58 173b
00000240: 44b9 1dbd 288d 3d3b f75c fabc bb42 843c
00000250: 86be cb3b ccb1 3bbd edb6 ab3c debb 9bbc
00000260: 0f57 d33c 407c 82bb be84 0cbd 56fd 403d
00000270: 70f2 e43c c8cd 313d fc4b 11bc 4242 553d
00000280: 4324 0abc df25 e83c 73db 913c 816a 90bb
00000290: af8f eebc dead e9bc 34c7 783c 9062 08bd
000002a0: 409e c13b 5905 e03c c5c6 92bc e2e5 073d
000002b0: f763 30bc 8baf b33c 6a21 ae3a 14ab 743c
000002c0: 1d27 333d 3f67 c5bc ae13 6dbc f521 583c
000002d0: 4267 3ebc 9f46 c23c f525 a43c ef6d d73b
000002e0: 29f6 203d 2b38 2d3d d2fa f03c c93e 17bd
000002f0: b907 c2bb 09b2 043c 320e 973c 5d27 c3bc
00000300: fd5f ea3c 470c 5d3d bab6 3bbd fc99 2fbc
00000310: b986 423d 2d8a b5bc a0ab 37bd f3a8 303d
00000320: b2de 3937 cc06 d03c b508 c8bc 019d cb3c
00000330: ce6a 18bd be51 babc 97e5 18bc ccbe f13c
00000340: c426 f93c 5bad 343d f55f 2e3d 7cad 08bd
00000350: 835e 2fbc a362 4d3c 8170 6a3c 6e13 22bd
00000360: d22e 1dbc ba41 013d c415 4abd c8c3 d9bc
00000370: 404b 1ebd df0e 1b3c 28e4 053d 48dc 523d
00000380: b797 10bd 05f5 8ebc 5f2b 683b 927a 86bb
00000390: 58f8 9c3b 64ce 9e3c bd37 023d a0c2 c8ba
000003a0: 7a15 aabb ceaa e0bc 02fc 893c 60c9 613b
000003b0: aca9 abbc efb8 d8bc c96a 1a3d 2731 253c
000003c0: 0ef7 483d 1014 2bbd a8f8 283c d1ed 24bd
000003d0: 42be 6c3c 5393 7a3c d2d2 94bb 3f40 e53c
000003e0: 7eba 8e3b d1af 2dbc 672e 25bb de3d 22bd
000003f0: 4af0 babb 0501 21bd 00e4 c5ba 6361 1d3d

model.4.weight f4 [128, 256]
0.0520476 0.011344249 0.04259118 -0.027931519 0.03469105 0.033191808 -0.0063412543 0.069643915
0.019070664 0.032567505 -0.022827368 -0.048577033 -0.05812618 0.071740024 -0.058941074 -0.0019951107
0.008781685 -0.04264973 -0.06369457 -0.03842442 0.023939442 -0.042756844 -0.027905764 -0.043310255
0.047742244 -0.015607876 0.0198491 0.042540308 0.0062925145 -0.04820446 -0.020594442 -0.061337747
0.036685005 0.0053542657 -0.048420537 -0.0056244135 0.054121856 -0.036537223 0.0064508254 0.036004104
-0.050696805 -0.059514172 -0.055900503 -0.047511425 0.05149838 -0.03830814 -0.05756 0.00045771152
0.02045074 -0.0015588013 -0.049010437 -0.05355318 -0.021478772 -0.006366336 0.050564602 0.043245006
-0.048476845 -0.003716217 -0.052540515 0.030620897 -0.043155584 -0.013339254 -0.02129618 0.008857992
0.051896267 -0.04638073 -0.03526683 -0.02927453 0.023154393 -0.009330817 0.03539605 0.024197608
0.015762229 0.0020550028 0.04110789 -0.026074905 -0.031180564 -0.0020394027 -0.019473173 -0.04391262
-0.044355687 0.032833297 -0.05662083 0.046595957 0.03179712 0.024485847 0.027283875 0.043003622
0.01282122 -0.007991634 0.046897084 -0.004123219 -0.032383658 0.022526095 -0.041227914 0.04600089
-0.02295987 0.048631974 0.06899221 0.028065847 0.011050546 0.006082564 -0.0060308366 0.0078387335
0.060332283 -0.025936432 -0.04602534 -0.03438103 -0.015759438 0.04432658 0.016922828 0.012682423
0.048099738 0.001600422 -0.05140295 -0.02268023 0.021483036 0.042820707 0.07722243 -0.0182065
0.00866206 -0.05513846 0.0075581 -0.024264589 0.02949923 0.04452381 0.054887585 -0.04601778
-0.012892799 -0.003977536 -0.013858816 0.017380312 -0.042530384 0.03556682 -0.04809213 0.060201835
0.013840514 0.06493157 0.04626429 -0.02825596 0.044686913 0.060502544 -0.04592503 -0.042637885
-0.0074797645 -0.0034343053 0.0013416442 -0.0029357036 0.018123655 0.050100747 0.043978717 -0.020251941
0.048936106 0.023775041 -0.032830756 0.021791775 0.033851173 -0.04779644 0.030085288 0.020644082
0.036452223 -0.022457713 -0.00011223686 -0.0484467 0.0016448055 0.0343667 0.039190724 -0.0375629
-0.05662276 -0.047018748 0.0155261345 -0.028536605 0.025502224 0.0528957 0.049118537 0.0070218816
0.035128973 -0.043836143 0.05487015 -0.050467364 -0.009244382 0.042804904 -0.012236852 0.004223632
-0.0071943775 0.014990248 0.059144676 -0.011740804 0.018775111 -0.06286355 -0.03059338 0.06738557
0.025603613 -0.008012725 -0.016477348 0.04615957 0.011227233 -0.028150441 0.01631201 -0.046455503
0.025883066 0.022620492 0.04739948 -0.055714335 -0.048750833 0.037424944 0.012628593 -0.025667405
0.082300276 0.064115986 0.028119646 -0.036513306 -0.014963628 -0.061179258 0.033336148 0.052128073
0.0027490542 0.06036627 0.026329804 -0.05204966 0.047765426 0.009717525 -0.03695804 0.035015028
-0.022545207 -0.004953891 0.0011944824 -0.008705581 0.01811968 -0.016252398 -0.009867879 -0.02222927
0.03656132 -0.047087647 0.0029757756 0.03236571 -0.035154533 0.02673544 -0.0370185 0.03337822
-0.020362124 -0.058348715 0.03459402 -0.057009697 0.053073447 -0.033826355 0.024093289 0.007150054
0.053396847 -0.030731523 -0.0016181307 -0.036502752 -0.018928878 0.0101251025 0.036215633 0.0018902074
00000000: dd2f 553d 3bdd 393c 1774 2e3d a4d0 e4bc
00000010: 3418 0e3d 22f4 073d 4cca cfbb 78a1 8e3d
00000020: 153a 9c3c 8165 053d 7600 bbbc b6f8 46bd
00000030: b815 6ebd 6fec 923d 326c 71bd 67c0 02bb
00000040: 0ee1 0f3c 7cb1 2ebd 4c72 82bd ed62 1dbd
00000050: a61c c43c cd21 2fbd a19a e4bc 1866 31bd
00000060: 5f8d 433d 2db8 7fbc 949a a23c bf3e 2e3d
00000070: 7031 ce3b 0a72 45bd adb5 a8bc 4a3d 7bbd
00000080: 0443 163d d672 af3b 9d54 46bd 004d b8bb
00000090: e1ae 5d3d 0ea8 15bd 7261 d33b 0a79 133d
000000a0: 74a7 4fbd 22c5 73bd edf7 64bd 579b 42bd
000000b0: f7ef 523d ffe8 1cbd 09c4 6bbd 00f9 ef39
000000c0: 4f88 a73c b150 ccba 2bbf 48bd 945a 5bbd
000000d0: 40f4 afbc b29c d0bb d41c 4f3d ad21 313d
000000e0: a88f 46bd c68b 73bb b934 57bd add8 fa3c
000000f0: e9c3 30bd e38c 5abc 5475 aebc 1c21 113c
00000100: 2e91 543d b8f9 3dbd f473 10bd 24d1 efbc
00000110: 48ae bd3c 48e0 18bc 73fb 103d 103a c63c
00000120: ca1f 813c 3aad 063b bf60 283d 0a9b d5bc
00000130: 626e ffbc 80a7 05bb 3486 9fbc b8dd 33bd
00000140: 4fae 35bd 357c 063d 3eeb 67bd 67db 3e3d
00000150: b23d 023d 8b96 c83c 6f82 df3c 9124 303d
00000160: 1810 523c 58ef 02bc 2817 403d 111c 87bb
00000170: baa4 04bd a588 b83c 9ade 28bd 6e6b 3c3d
00000180: 5616 bcbc 5232 473d ca4b 8d3d 59ea e53c
00000190: 590d 353c 3f50 c73b 539e c5bb 086e 003c
000001a0: fc1e 773d a478 d4bc 1185 3cbd 1fd3 0cbd
000001b0: f019 81bc ca8f 353d bea1 8a3c f0c9 4f3c
000001c0: 3b04 453d 40c5 d13a e68b 52bd e4cb b9bc
000001d0: 31fd af3c c464 2f3d cb26 9e3d cc25 95bc
000001e0: 50eb 0d3c ded8 61bd f0a9 f73b 88c6 c6bc
000001f0: 5fa8 f13c 995e 363d ced1 603d 247d 3cbd
00000200: 523c 53bc fe55 82bb 1610 63bc 2861 8e3c
00000210: 5734 2ebd 84ae 113d 41fc 44bd 3396 763d
00000220: 53c3 623c d8fa 843d a07f 3d3d 0b79 e7bc
00000230: a009 373d 84d1 773d e21b 3cbd 10a5 2ebd
00000240: d018 f5bb 1512 61bb 1cda af3a ef64 40bb
00000250: 0f78 943c 7136 4d3d 0723 343d 66e7 a5bc
00000260: 3a71 483d e0c3 c23c 8b79 06bd aa84 b23c
00000270: 87a7 0a3d 33c6 43bd 6c75 f63c c71d a93c
00000280: ed4e 153d 3df9 b7bc b560 ebb8 0c70 46bd
00000290: 8496 d73a 19c4 0c3d 7486 203d 8edb 19bd
000002a0: 44ed 67bd bb96 40bd 5461 7e3c 99c5 e9bc
000002b0: 0aea d03c 29a9 583d 8530 493d d017 e63b
000002c0: 66e3 0f3d 878d 33bd 86bf 603d deb6 4ebd
000002d0: c075 17bc 3254 2f3d 147d 48bc 6566 8a3b
000002e0: d0be ebbb a899 753c b041 723d 805c 40bc
000002f0: 43ce 993c 9bbe 80bd f89e fabc 7201 8a3d
00000300: abbe d13c ce47 03bc 81fb 86bc d111 3d3d
00000310: 6ef2 373c c19b e6bc c4a0 853c 2048 3ebd
00000320: b908 d43c 9c4e b93c f525 423d b734 64bd
00000330: f4ae 47bd e64a 193d 28e8 4e3c 7344 d2bc
00000340: 0c8d a83d 3e4f 833d 2c5b e63c fa8e 15bd
00000350: 012a 75bc 1a97 7abd 7c8b 083d 3f84 553d
00000360: 7a29 343b 9f42 773d 9ab1 d73c 0632 55bd
00000370: aea5 433d 4136 1f3c 5061 17bd eb6b 0f3d
00000380: bab0 b8bc 4054 a2bb 2e90 9c3a daa1 0ebc
00000390: b96f 943c c023 85bc e2ac 21bc 281a b6bc
000003a0: 53c1 153d fade 40bd 3b05 433b e891 043d
000003b0: 33fe 0fbd 4804 db3c b6a0 17bd 9ab7 083d
000003c0: 78ce a6bc 10ff 6ebd 76b2 0d3d 0083 69bd
000003d0: 8b63 593d 818d 0abd 4a5f c53c 004b ea3b
000003e0: a7b6 5a3d adc0 fbbc 7517 d4ba e983 15bd
000003f0: bc10 9bbc c2e3 253c d856 143d d6c0 f73a

model.4.bias f4 [128]
-0.012317999 -0.018095732 -0.037929088 -0.015241872 0.0031984334 0.031712253 0.043787763 -0.018849244
-0.06295422 0.00821507 -0.029835675 0.047877405 -0.0062856213 -0.003016676 -0.04428809 -0.049963996
0.023383947 -0.03757337 -0.023187231 0.022398109 -0.005106879 -0.0665641 -0.043991875 -0.015221217
0.0062425863 -0.03318505 -0.042124845 0.0026676208 -0.00378694 0.05075201 0.051514708 -0.047151793
-0.06401504 0.017523888 -0.020428123 0.024333036 -0.002288293 -0.03310793 -0.04434965 -0.01905419
-0.006445146 0.054784752 -0.0621067 -0.028911516 0.025605407 0.029322235 -0.018706642 0.043951888
-0.022684155 0.00784591 0.049746312 0.0365204 -0.0065740617 0.0021170513 0.04199248 0.016132507
0.04008953 -0.04702689 -0.029837964 0.051260564 0.016187435 -0.063846774 0.030062407 -0.019543698
0.02786727 0.06809928 0.05880123 0.040501468 -0.068452656 -0.015182763 0.048128113 -0.006014882
0.03248787 -0.03424147 0.062168036 0.058097802 0.02858069 -0.02260229 0.0236475 -0.046918157
0.0057787932 -0.0017784947 -0.0055373874 0.03196624 -0.04600677 -0.06460219 -0.009649592 0.05897469
-0.036254324 0.010164924 -0.049145978 -0.012369859 -0.05591129 -0.063753985 0.02167442 -0.06166739
0.04896421 0.00981913 -0.04501937 -0.027948542 0.040670007 -0.027633788 -0.03437445 0.042331975
0.049046356 0.008154987 0.0003283588 -0.058625516 0.046097115 -0.008231889 0.0107942615 -0.02708348
0.02271936 -0.034214422 -0.03934767 0.028110946 -0.023917835 0.004712233 0.02090614 -0.015007406
-0.03263671 -0.042104263 -0.020473082 0.051863704 0.031068426 0.10138744 -0.039662268 0.0491804
00000000: 6fd1 49bc 803d 94bc 885b 1bbd 0bb9 79bc
00000010: cf9c 513b b5e4 013d cc5a 333d bb69 9abc
00000020: 24ee 80bd 8098 063c f269 f4bc 191b 443d
00000030: 9df7 cdbb 6db3 45bb 6e67 35bd 0ca7 4cbd
00000040: b18f bf3c 89e6 19bd 26f3 bdbc 3d7c b73c
00000050: 9b57 a7bb c252 88bd d330 34bd 6962 79bc
00000060: 9c8e cc3b 0ced 07bd 1a8b 2cbd 40d3 2e3b
00000070: 4f2e 78bb 57e1 4f3d 1601 533d 3d22 41bd
00000080: 511a 83bd 428e 8f3c e158 a7bc 1356 c73c
00000090: 30f7 15bb 2e9c 07bd fba7 35bd 8817 9cbc
000000a0: ce31 d3bb fa65 603d 9863 7ebd d8d7 ecbc
000000b0: 6ec2 d13c 2f35 f03c ac3e 99bc e506 343d
000000c0: 1fd4 b9bc 228c 003c cac2 4b3d 6a96 153d
000000d0: 3a6b d7bb 3abe 0a3b 4f00 2c3d 5228 843c
000000e0: eb34 243d 459f 40bd bf6e f4bc 99f6 513d
000000f0: 839b 843c 19c2 82bd 7045 f63c 1b1a a0bc
00000100: e749 e43c a377 8b3d 8fd9 703d dee4 253d
00000110: e830 8cbd 20c1 78bc fc21 453d 7d18 c5bb
00000120: 0012 053d c940 0cbd e9a3 7e3d f6f7 6d3d
00000130: 0d22 ea3c 7028 b9bc 67b8 c13c 412d 40bd
00000140: 085c bd3b 611c e9ba f972 b5bb 08ef 023d
00000150: 9871 3cbd 274e 84bd 5319 1ebc 728f 713d
00000160: 6a7f 14bd c88a 263c 4b4d 49bd f3aa 4abc
00000170: 3d03 65bd 7391 82bd 8e8e b13c f296 7cbd
00000180: b28e 483d 6be0 203c 3b66 38bd 57f4 e4bc
00000190: 9895 263d 4160 e2bc 39cc 0cbd 4b64 2d3d
000001a0: d5e4 483d 7f9c 053c 9227 ac39 4f21 70bd
000001b0: 54d0 3c3d 0cdf 06bc 6ada 303c 2dde ddbc
000001c0: f41d ba3c 6c24 0cbd 062b 21bd ed48 e63c
000001d0: 56ef c3bc 1369 9a3b 5a43 ab3c 9fe1 75bc
000001e0: 12ae 05bd 8575 2cbd 2ab7 a7bc 096f 543d
000001f0: 3683 fe3c 38a4 cf3d e774 22bd 6371 493d

model.6.weight f4 [4, 128]
-0.07463005 -0.06155206 0.021694016 0.013966543 -0.1249851 -0.022301337 0.021610923 0.0666919
0.016263686 0.07446907 0.0070213247 -0.004327249 0.0745635 0.010862347 -0.012405319 0.15315206
-0.15845568 0.03845608 0.050414734 0.00023159091 0.04995356 -0.0712588 -0.01679164 -0.007947024
-0.059017304 0.015341714 0.08474659 0.049280815 -0.0034127163 0.12324326 0.048665512 -0.058529716
-0.03322953 0.0042547835 0.022462716 0.054000087 0.013920987 0.0041805846 -0.04254711 0.0026972517
0.08181251 0.0026684569 0.028099768 -0.030753074 -0.06760437 -0.071149476 0.006421332 -0.08493089
-0.013848328 0.065018795 0.0398935 -0.04877369 -0.058876842 -0.027529929 -0.049019694 0.08657535
-0.003998648 0.10326699 0.045217294 -0.00094208407 -0.050063346 0.046830602 0.059521977 0.024511203
0.028883858 0.040721875 -0.0021454794 0.009111285 -0.00065052457 0.123864576 -0.018187057 -0.0034278107
0.064853095 -0.018732272 -0.038741045 -0.058896244 -0.005591363 0.029397259 -0.026437188 0.055420674
0.02178169 -0.04709478 -0.02724671 0.041893467 0.048376925 0.07068767 -0.028767468 -0.0810322
-0.0732302 -0.050138105 -0.038461294 0.0820265 -0.034970872 0.019076057 -0.0075372118 0.008829489
-0.031160839 -0.12699337 -0.15556863 -0.038664095 0.05499677 0.03259457 -0.052419003 0.06116532
-0.05854173 0.07796423 0.031783443 -0.05567472 0.08761739 -0.026520643 0.021090757 -0.074845746
-0.018166885 0.03383306 0.03376599 -0.035716977 0.05085894 0.08754975 0.07734252 0.07196854
0.031358045 -0.03627609 -0.04407048 -0.008847013 -0.011296359 0.09617563 0.01757776 0.089694455
-0.032826733 -0.03852805 -0.02014484 0.045729775 0.032211658 -0.004323603 0.059966546 -0.044433802
0.0048456076 -0.03973738 -0.07494641 0.030763526 -0.028191302 -0.044521384 0.0027424148 -0.00056178897
0.005564925 0.023517465 0.054674886 0.038572047 0.08036678 -0.021489268 0.029713782 -0.05451325
-0.054297503 -0.06464583 0.05010345 0.021032948 0.038320664 0.04865745 -0.07219268 0.06361314
-0.0059955246 -0.09017128 -0.08068687 0.08553344 0.037420038 0.05259848 -0.035114698 0.054663673
0.009153063 0.06571066 0.017530441 0.077336796 -0.066634774 0.001084872 0.016450332 0.007342487
-0.06654405 0.050052207 0.007639142 0.041602273 -0.028433159 -0.12436137 -0.058073215 0.06939119
-0.11818612 0.02549056 -0.07291228 0.023319555 0.049398527 0.020516962 -0.0362751 -0.05517483
-0.004800362 0.029679703 0.014235084 0.012005801 -0.020630585 -0.047535356 0.09162844 0.02494773
-0.10131476 -0.061197154 0.031347368 -0.099762715 -0.08154911 0.007072792 -0.031133004 0.006996022
0.072048225 -0.05647133 0.072476946 0.008075082 -0.05533307 0.060399182 0.05866397 0.0025701474
-0.06096386 0.02750078 0.06255413 0.032778747 -0.0898429 0.055120368 -0.02432475 -0.028501395
-0.003919513 -0.061181936 0.021354895 0.037728585 -0.0062964475 -0.035766296 -0.048771497 -0.034118358
0.060840346 -0.0024428128 0.03746796 0.0006788482 -0.021516744 0.04316087 -0.039601967 -0.08099995
0.040104397 0.03697111 -0.045778766 -0.0062113446 -0.027531402 0.020290207 -0.026582465 0.056541912
-0.069455415 0.07110914 -0.063342005 0.011336099 -0.16030553 0.037581302 -0.022913454 0.05643154
00000000: a4d7 98bd 031e 7cbd a6b7 b13c edd3 643c
00000010: 30f8 ffbd 4bb1 b6bc 6409 b13c c395 883d
00000020: 6c3b 853c 3d83 983d 2413 e63b 98cb 8dbb
00000030: c0b4 983d fcf7 313c ae3f 4bbc e5d3 1c3e
00000040: 3542 22be 1f84 1d3d ae7f 4e3d 36d7 7239
00000050: 1b9c 4c3d 22f0 91bd 9f8e 89bc 3c34 02bc
00000060: 21bc 71bd d05b 7b3c 9f8f ad3d aeda 493d
00000070: e1a7 5fbb f666 fc3d 7d55 473d dbbc 6fbd
00000080: b01b 08bd b66b 8b3b bb03 b83c 322f 5d3d
00000090: da14 643c 49fd 883b e145 2ebd 60c4 303b
000000a0: 518d a73d 47e1 2e3b 7c31 e63c dfed fbbc
000000b0: 2974 8abd d1b6 91bd 096a d23b 3ff0 adbd
000000c0: 19e4 62bc 9328 853d 5e67 233d ecc6 47bd
000000d0: d828 71bd 7286 e1bc e0c8 48bd 6b4e b13d
000000e0: 1707 83bb a57d d33d c535 393d 31f6 76ba
000000f0: 390f 4dbd 72d1 3f3d 51cd 733d b8cb c83c
00000100: d79d ec3c fbcb 263d 2c9b 0cbb 8047 153c
00000110: f787 2aba b6ac fd3d 06fd 94bc 1fa5 60bb
00000120: b3d1 843d 6c74 99bc eeae 1ebd 303d 71bd
00000130: c137 b7bb 85d2 f03c cd92 d8bc ca00 633d
00000140: 846f b23c 75e6 40bd 7e34 dfbc 7c98 2b3d
00000150: e226 463d b2c4 903d c1a9 ebbc 36f4 a5bd
00000160: b7f9 95bd 9d5d 4dbd 9789 1dbd 82fd a73d
00000170: 9e3d 0fbd 6445 9c3c b7fa f6bb 90a9 103c
00000180: 0445 ffbc 8d0a 02be 624d 1fbe 3e5e 1ebd
00000190: 4b44 613d e281 053d 4fb5 56bd 7d88 7a3d
000001a0: 74c9 6fbd b6ab 9f3d 5b2f 023d 2d0b 64bd
000001b0: bf70 b33d d241 d9bc 86c6 ac3c ba48 99bd
000001c0: b8d2 94bc 8994 0a3d 354e 0a3d f74b 12bd
000001d0: 7751 503d 494d b33d c165 9e3d 3e64 933d
000001e0: 4b71 003d 3d96 14bd 3f83 34bd 10f3 10bc
000001f0: 5d14 39bc bbf7 c43d 3cff 8f3c bab1 b73d
00000200: 5375 06bd 97cf 1dbd cb06 a5bc 254f 3b3d
00000210: 5ff0 033d 03ad 8dbb 7b9f 753d 3800 36bd
00000220: e7c7 9e3b aac3 22bd 817d 99bd ca03 fc3c
00000230: 72f1 e6bc 0e5c 36bd 16ba 333b 0545 13ba
00000240: f959 b63b b3a7 c03c c6f2 5f3d b9fd 1d3d
00000250: 5797 a43d 430a b0bc 516a f33c 4949 5fbd
00000260: 0f67 5ebd 0865 84bd 4639 4d3d 4a4d ac3c
00000270: 21f6 1c3d 094d 473d c1d9 93bd 9b47 823d
00000280: 1b76 c4bb b8ab b8bd 283f a5bd 282c af3d
00000290: c145 193d 8171 573d 6ed4 0fbd 04e7 5f3d
000002a0: bbf6 153c 4f93 863d 009c 8f3c c162 9e3d
000002b0: d077 88bd 4432 8e3a d9c2 863c 3f99 f03b
000002c0: 3f48 88bd 8b03 4d3d c551 fa3b 2567 2a3d
000002d0: a8ec e8bc 2db1 febd 2ede 6dbd f81c 8e3d
000002e0: 910b f2bd 94d1 d03c 0953 95bd a708 bf3c
000002f0: 1c56 4a3d 3013 a83c 3395 14bd 01ff 61bd
00000300: 5b4c 9dbb d922 f33c 453a 693c fbb3 443c
00000310: 7901 a9bc 6fb4 42bd b1a7 bb3d 2f5f cc3c
00000320: 1d7e cfbd dea9 7abd 1966 003d 6550 ccbd
00000330: 3803 a7bd e1c2 e73b a40a ffbc e33e e53b
00000340: 058e 933d 7b4e 67bd cb6e 943d 594d 043c
00000350: eea4 62bd 2265 773d a249 703d eb6f 283b
00000360: 3eb5 79bd 5149 e13c 611c 803d 0243 063d
00000370: 8eff b7bd e5c5 613d b344 c7bc c27b e9bc
00000380: 426f 80bb e999 7abd 76f0 ae3c 4a89 1a3d
00000390: 6e52 cebb ae7f 12bd 9fc4 47bd b1bf 0bbd
000003a0: ba33 793d 9917 20bb 0178 193d bbf4 313a
000003b0: e243 b0bc 74c9 303d ac35 22bd 4de3 a5bd
000003c0: 8244 243d 056f 173d 8482 3bbd 8988 cbbb
000003d0: 8989 e1bc a637 a63c 78c3 d9bc 7e98 673d
000003e0: a43e 8ebd aba1 913d 74b9 81bd 0cbb 393c
000003f0: 2227 24be daee 193d ffb4 bbbc c224 673d

model.6.bias f4 [4]
0.045322645 0.012031521 -0.025803117 0.07180676
00000000: 3da4 393d db1f 453c 0f61 d3bc 6c0f 933d
